Lab8.Convolutional Neural Network/models/mnist2.pth (torch, 252935 bytes, 10 tensors)

weight f4 [6, 1, 5, 5]
00000000: 090d 103d 00da 0d3c edc1 2f3e 84fb c33e
00000010: b777 70bc 8643 713e 04c3 443d 4b9a 853e
00000020: 0533 d63e 4ce5 b83e 4a50 643e 9089 3abd
00000030: 25ea f3bd 403c 883e a022 c53d ed37 90be
00000040: d664 7cbe 96eb 8cbe d720 85bc 1ed0 f53d
00000050: a067 21be 3006 88be d367 c9be 3297 babe
00000060: db53 9cbd 0666 5ebd fbf1 4f3e ca01 af3d
00000070: c6e1 7cbd a749 e1bd 5d39 8cbb f8e4 ce3d
00000080: f916 8a3e 4c14 003d fb44 9fbd 3dd7 90bc
00000090: a2fd 803e ab54 083e ef28 76be c52b 41be
000000a0: 479c d6bc 14f8 a63d 4b64 d7bc ff23 d9bd
000000b0: a4a1 6a3d a878 993d 8191 803e c096 b4bd
000000c0: a63b fcbd 6e75 1cbd 6acb c1bd fd73 1bbe
000000d0: ef71 cebc ee52 32bd 14c5 0abe 6427 57be
000000e0: 2607 b2bd 7794 5abe e2b5 fb3a c161 59be
000000f0: c1f4 d53c 279c 38bd 1642 903d 6dae 40be
00000100: 6473 41be 00ad a6bd 7ba4 92bd 1690 9a3d
00000110: 6ce8 26be 1dd2 3bbe 0aac 8c3d 7caf 5dbe
00000120: f144 42bd 0a89 813c 71e1 98bb f72f 24be
00000130: eab2 4dbd 467a 64bd 9e96 083e 0f13 7d3e
00000140: 283d d73d bc30 91bd 449c 42bd 752e a43e
00000150: 724b ad3e bb56 bdbd adb8 5d3e 4b3e 0d3e
00000160: f9d1 9f3d 5719 d23c 6e28 c13d c54a d3bd
00000170: 02a4 203e e92c e43d 7b77 fbbd 74c6 593e
00000180: 4ef5 f0bd f260 39bc 9209 a7bc 3163 fe3d
00000190: e948 753e 605a ea3e caca e83e 6982 bd3e
000001a0: bf3f 943e 7b20 e43e 148e ad3e debe 2d3f
000001b0: 845a e03e ff14 8c3e 33ea 743e 8135 ed3e
000001c0: b852 ca3e 9793 db3e 420f 44bd 8e72 403e
000001d0: a89b 213e 11cf a83e 8834 273e bfeb 573e
000001e0: d274 19be 263f 36be 23cd 04be 6bcb 33be
000001f0: ca38 20be a052 2a3e fc77 9a3e 5fcb a93e
00000200: 3988 d93e e53d 313e 800e 973e b4dd af3e
00000210: 29ae 6e3d 8ef2 e33e 0cc6 123e 8d8f 17be
00000220: 1b44 efbb c825 d8bd 947d 8a3c 36c4 233d
00000230: f0ea a0be 64a4 5fbe a02f b8bc 8f35 7d3d
00000240: ef46 2d3e 34e8 b3be 0b37 99bd c9d5 86be
00000250: 6c0f 243e 84ea 8a3e
0.03516868 0.008657932 0.1716382 0.3827783 -0.01467698 0.23560914 0.048037544 0.2609428
0.418358 0.3611244 0.22296253 -0.045541346 -0.11909894 0.26608467 0.09625745 -0.28167668
-0.24647841 -0.27523488 -0.01625101 0.12002586 -0.15762186 -0.2656722 -0.39337024 -0.36443478
-0.07633182 -0.054296516 0.20307152 0.08545263 -0.06173875 -0.11000376 -0.004279299 0.10102266
0.26970652 0.031269357 -0.07776829 -0.017680759 0.25193506 0.13313548 -0.24039052 -0.18864353
-0.026197566 0.08152786 -0.02629294 -0.10602569 0.05728306 0.074937165 0.2511101 -0.08817816
-0.123160645 -0.038197927 -0.09462626 -0.15180965 -0.025200812 -0.04353612 -0.13551742 -0.2101112
-0.0869277 -0.21345697 0.0019203986 -0.21228696 0.026117684 -0.045070793 0.07043855 -0.18816538
-0.18891674 -0.08138466 -0.071602784 0.075470135 -0.162996 -0.1834187 0.06868751 -0.21648973
-0.04742903 0.015812416 -0.0046655466 -0.16033922 -0.050219454 -0.05578067 0.13338706 0.24714302
0.105097115 -0.070893735 -0.047512308 0.32066694 0.33846623 -0.09245058 0.2165248 0.13793294
0.07803721 0.025646849 0.094315395 -0.103169955 0.15687564 0.111413784 -0.122786485 0.2126711
-0.11765538 -0.0113146175 -0.020390306 0.12421263 0.23953594 0.45772076 0.45467216 0.37013558
0.28954884 0.4455603 0.3389746 0.67869365 0.43819058 0.2735977 0.23917465 0.46329883
0.39516234 0.4288604 -0.047866113 0.18793699 0.15782034 0.3297048 0.16328633 0.21086024
-0.1498597 -0.17797527 -0.12968878 -0.17558067 -0.15646663 0.16633081 0.30169666 0.33162972
0.42486742 0.17308767 0.2950325 0.34348834 0.05827156 0.44520992 0.14333361 -0.14800854
-0.00730182 -0.10554081 0.016905583 0.039982043 -0.31429243 -0.21840054 -0.022483647 0.061818656
0.1692159 -0.35138094 -0.07481202 -0.2633498 0.16021508 0.27132046

bias f4 [6]
00000000: 32c7 84bd 9676 84bd a179 463e 3c56 0a3e
00000010: ad22 703e fd3d 023e
-0.06483306 -0.06467931 0.19382335 0.13509458 0.23450728 0.12718959

weight f4 [16, 6, 5, 5]
00000000: c45e 45bb 7b9a 253d 26a6 6fbd 7186 813d
00000010: f053 7bbc 9769 1d3d 0953 503d 4dfd 813b
00000020: 864a 523d 6843 29bd 5777 83bd ea38 843d
00000030: 007a adbd 6f67 0bbd 2c95 29bd 1dd0 8f3c
00000040: 8535 8a3c 2c40 96bd 8b0c 333d 0b35 563d
00000050: 10e9 5bbd 7454 17bb 7020 973a 41a4 933c
00000060: 42fe 5e3d 181d bb3d 99e0 58bd 86ba a0bd
00000070: 3b49 69bd 2e32 bdbc 8aa5 803d 4b7d 303d
00000080: 0548 6fbd 002e 863d 13a8 1dbd 05fb d93c
00000090: 06db 9b3d fb16 59bd ad43 9b3c 793e 203d
000000a0: cbcb f03c 9816 9a3b 8ed6 763c 0ff0 5fbd
000000b0: e14a 073d 45a7 a43c 5fdc 623c 22d9 81bd
000000c0: 74e8 1fbd 5ba8 0c3d 1d4b 583d 74cc 4dbd
000000d0: 299e 623d a934 b4bc eecb 0bbd 7102 88bd
000000e0: 32dc 35bd 97c6 32bd 21e3 073d b71d 803d
000000f0: cb5f 403c 0cb1 4fbd 22a6 5ebb e9fa 823d
00000100: 58f2 873d 04cf 81bc 90b0 b8bb 85f1 b53d
00000110: b9cb 6d3b 6a62 a33d 4879 6c3d ab2b f63c
00000120: 003e 0abc 111a bf3c 91d7 50bd 1e79 1e3c
00000130: fac8 a1bd 19dd 93bd 6ae2 733d 22d5 133d
00000140: 9857 51bb ce53 923c 2de4 3b3d 408d 9fbd
00000150: 61b6 97bd 76bc 953d 1508 86bd 347e a6bd
00000160: 1299 ccbb e75b 90bd dbaf 70bd e4b1 1a3d
00000170: 4ada d0bc b408 70bc b9fb aa3c 8fe6 803d
00000180: 3972 9f3d c26e 0b3c 8872 3c3d d9a6 d23b
00000190: ecee dd3d e4d8 0d3c b36f 1fbd 167c fe3b
000001a0: 4ddb 5f3d da8b 2a3d c324 f9bc b11e 65bd
000001b0: 4285 05bd b178 b2ba 4e1f fd3b fdaf a8bc
000001c0: 2660 c1bd a354 9a3d 6582 3cbd 8567 fc3b
000001d0: 07c2 8f3d 2501 03bd b59b 64bd d25c 3ebd
000001e0: 92b2 7d3d efe8 70b9 d7a4 91bd 7f2d eb3b
000001f0: 71d4 0e3d 8ed4 4dbd 2c1c 7f3d 5577 803d
00000200: 2a37 2e3c c6ce 903c b9e6 48bd 99ef 55bd
00000210: d026 23bd 6006 083d 2905 043d 1a63 5ebc
00000220: 9b1e ab3c 5652 06bd 1c6b 97bd 24ba 2dbc
00000230: 5882 923d 4f26 48bd 0467 35bd a1fc 4b3d
00000240: 085c 403c ebf1 553b b0d1 69bd 2dab 0d3c
00000250: beaa 63bc 76a0 e9bb 3f7c fc3d 832a c03d
00000260: bedd 993d 933a 033d a69d 16bd cf75 0a3e
00000270: bd05 c43d 083d 053e 42e0 003e 5bb8 97bd
00000280: 4adb a33c d148 a1bb 2269 3cbc 2d26 0e3c
00000290: 9e38 0c3c fa69 043d d628 eebd d8b5 d53b
000002a0: 1974 493d e33d 4dbd cbe4 3b3c 0ad6 3a3d
000002b0: 7107 42bd ddf6 7bbd d538 54bd ae7e 88bc
000002c0: 90ce c03c 1712 cfbd 58c2 7ebd b555 9fbd
000002d0: 3f55 2e3d 8c65 963d 77a2 1e3c a29b 5abd
000002e0: f57f adbc 42de 423d 218e 02bd e273 133d
000002f0: d160 b4bd baae b5bc e396 99bd b837 b73c
00000300: e1d8 aabd 9e79 5c3d 38ad ef3c 13f6 0e3d
00000310: 1a13 123c be57 c0bb 5cda 943d 51a1 a03c
00000320: c1f4 82bd 2ab1 cdbd c7a2 5abd 3632 86bc
00000330: 8dce 87bd fb03 233c 90fb 083d 57b5 24bd
00000340: 3e22 85bd 03dc 2bbd 873d 0d3d 458c 433d
00000350: 3b90 093d 4e53 233d 8205 a7bd 0f33 a03c
00000360: fb77 473d 94cf 5c3d 8b31 cfbb 3c6b 463a
00000370: 335d 163d ffa2 4abd 7b56 063d 3856 f8bc
00000380: 0ab5 14bd 7487 9ebb dec8 a2bd d55e 29bd
00000390: a574 f3bb 1a8b 9bbd 2c43 d33d 2a6f e53c
000003a0: c668 a9bc aec0 3a3d 73fc 9dbc 6ebd 5d3d
000003b0: be98 a2bd 5ed7 823d c468 c43c 02d4 1f3d
000003c0: 5762 4d3c f8b9 70bd 9423 3cbd 445a ac3d
000003d0: 1c0a 133d d372 413d 96f6 7c3d a833 f0bc
000003e0: 9dc7 4d3c 1942 393d 0fa7 65bd cf45 883d
000003f0: a877 16bc 5908 3e3c 9b43 81bd 2dc7 14bd
-0.00301163 0.040430527 -0.05850806 0.06324471 -0.0153398365 0.038430776 0.05086044 0.0039669634
0.051340602 -0.04132405 -0.06419247 0.06456168 -0.08470535 -0.03403419 -0.041402027 0.01755529
0.016871223 -0.073364586 0.043713134 0.05229668 -0.053689063 -0.002309111 0.0011530053 0.018022658
0.054441698 0.091364086 -0.052948568 -0.078480765 -0.056954604 -0.023095217 0.06281574 0.04308824
-0.058418293 0.065517426 -0.038490366 0.026608953 0.07610135 -0.05300043 0.018953169 0.03912208
0.029394051 0.0047024004 0.015065802 -0.054672297 0.033030394 0.020099292 0.013846486 -0.06340243
-0.039040044 0.034340244 0.05280601 -0.05024381 0.055326615 -0.021997767 -0.03413003 -0.06641091
-0.044399448 -0.04364642 0.03317559 0.06255668 0.011741589 -0.050705954 -0.0033973535 0.063955136
0.0663802 -0.015845783 -0.0056362823 0.08883957 0.0036284758 0.07977755 0.05773285 0.03005012
-0.0084376335 0.02332786 -0.05098683 0.009672431 -0.07899661 -0.072199054 0.059542097 0.03609193
-0.003194308 0.017862227 0.045871902 -0.07790613 -0.07407833 0.07311337 -0.0654451 -0.0812954
-0.0062438333 -0.07048779 -0.05876146 0.037767306 -0.025494713 -0.0146505125 0.020871984 0.062939756
0.07785458 0.008510293 0.046007663 0.006428581 0.10836586 0.008657668 -0.038924884 0.007766257
0.0546525 0.04163728 -0.030413037 -0.055937473 -0.032597788 -0.0013616291 0.007724679 -0.02059173
-0.09442167 0.075356744 -0.04602279 0.00770277 0.0701943 -0.031983513 -0.055812556 -0.04647524
0.061937876 -0.00022974958 -0.07111519 0.0071770544 0.03487057 -0.050251536 0.062282726 0.06272761
0.010633269 0.017676722 -0.04904816 -0.05223045 -0.039831936 0.033209205 0.032231484 -0.013573432
0.020888617 -0.032793365 -0.07393476 -0.010603461 0.07153767 -0.04886466 -0.044287696 0.049801473
0.011740692 0.0032645415 -0.05708474 0.0086467685 -0.013895689 -0.007129724 0.123283856 0.093831085
0.07512997 0.032038283 -0.03677144 0.13521503 0.09571407 0.13011563 0.12585548 -0.0740821
0.020002026 -0.0049220105 -0.011499675 0.008676094 0.00855842 0.03232763 -0.116288826 0.0065219216
0.049182985 -0.050107848 0.011468123 0.04561428 -0.047370378 -0.061514724 -0.05181201 -0.016661968
0.023535997 -0.10110872 -0.06219706 -0.07780019 0.042561766 0.07343587 0.009682289 -0.05337108
-0.021179179 0.047575243 -0.031873826 0.035999186 -0.08807529 -0.022178043 -0.074994825 0.022365436
-0.083421476 0.05382692 0.029257402 0.034902643 0.008915687 -0.0058698347 0.07268211 0.019608172
-0.06394339 -0.10043557 -0.053377893 -0.016381364 -0.06631193 0.0099496795 0.033443034 -0.040212
-0.06500672 -0.041957866 0.034482505 0.047741193 0.033584815 0.039874367 -0.081553474 0.019555597
0.048698407 0.0539089 -0.0063230447 0.000756908 0.036709975 -0.04947185 0.032797318 -0.03031455
-0.036305465 -0.0048379246 -0.079484686 -0.041350204 -0.0074296766 -0.07594891 0.103155464 0.028007109
-0.020679843 0.04559391 -0.019285416 0.054135732 -0.079392895 0.06388734 0.023975737 0.039020546
0.012535653 -0.058771104 -0.045932367 0.08415654 0.035898313 0.047228646 0.0617586 -0.029321507
0.012559799 0.04522905 -0.056067523 0.0665394 -0.009183802 0.01159867 -0.06311723 -0.03632276

bias f4 [16]
00000000: c24d 033d 8650 483d 8646 4ebd 3e94 f93c
00000010: 07a7 863d 344e eabc ee9b 833c f22d a43d
00000020: e8f4 23bd e9f7 753c 8838 8cbd 084a 80bd
00000030: c702 3c3d 3dc0 603c a56a 383d 4ef7 793d
0.032056578 0.048904918 -0.050360225 0.030466195 0.06574827 -0.028601743 0.016065564 0.08016576
-0.040028483 0.01501272 -0.0684672 -0.0626412 0.045901086 0.013717708 0.04502358 0.061026864

weight f4 [120, 400]
00000000: 40a8 e6bb aa11 acbb 2543 d03c 19df fc3c
00000010: d286 85bb 0920 40bb eb74 f9ba 51cc 433d
00000020: 1a3e 9e3c cff1 93bc 24b8 7abc 250b d5bc
00000030: 0e2a 96bc e8aa b2bc 4884 263d a241 f63c
00000040: 8ebe c4bc 4b07 253c 2a55 423d 09a1 c63b
00000050: b91d 063d 44de 133d 777a 0fbd 17db a1bc
00000060: 48e4 f8bc c219 433c 502d f13c 67d7 2f3c
00000070: 33e2 f53c 5666 40bd dbea 22bd e547 1ebd
00000080: be57 af3a 4e79 14bd 37f4 853d 42d7 89bb
00000090: 6f96 45bd 26ff 0b3d b25d 4d3c 6a6a 453d
000000a0: 7306 7b3d b379 abbb be3d 4f3d 0bb0 1a3c
000000b0: a1a1 453d ba32 663b 22f1 47ba 2cda 7dbb
000000c0: 37be 47bd e1f7 55bc 5f4f 803c 90b9 2abc
000000d0: 5f52 3ebd 796a 6dbc b9fa b33d 0185 1d3d
000000e0: cfcd 763b fa12 af3c 896a dfbc d693 063d
000000f0: b28e 943d b5ba 08bd 0531 a2bb d499 2bbd
00000100: e260 57bd 6aaf bdbc fa96 083d df0d 47bd
00000110: 07c6 99bd 1d83 6abd 7795 61ba e198 e3bc
00000120: 9478 efbc 8b10 4cbc 838f 1bbd dbd1 343c
00000130: 0e53 323c ba15 6cbc abd4 e33b 7c44 d03c
00000140: b26c 1f3d 2e35 bd3c e157 0dbd 9293 193d
00000150: af68 5139 25a3 7b3d 44de 273d e2ed 173d
00000160: aa29 46bd c7eb 03bd a1d3 3f3d 6555 343d
00000170: a1b8 00bd 9e9f 12bd e72d 0dbd 43c1 183d
00000180: 14d8 a83c 33ea 133d 9205 0cbd 1171 1bbd
00000190: 2da6 cc3c 5052 a53c 4365 91bc 0ae2 adbc
000001a0: f895 9f3c d3d6 adbc 3926 16bd 2f74 04bc
000001b0: 7eff b93c bb15 3c3c bf7b 09bc 253e ce3c
000001c0: 9e48 2bbd ec66 18bd 3662 0b3d ac9d 81bc
000001d0: 499f 16bc 6869 42bc 0951 3a3d a823 223d
000001e0: 1b5d 053d ac09 49ba 9dab c43c 1c8f af3c
000001f0: f494 22bd 3e7f 3c3d 8134 d63c 7338 8fbc
00000200: 26aa 7bbb 1ed7 7c3d 0684 1c3d 5555 d13c
00000210: a998 d5bc 023b 0f3b 3234 3e3d e7ea 44bd
00000220: 86eb e4bc 89e0 4b3d a35a 81bc 04be f0bc
00000230: 3f0f a3bb 9889 b83c 9c69 bbbc 1678 d03c
00000240: 27ea 803b ff63 92bc cd01 133d e69a 3fbc
00000250: 41e5 403c 4fc8 b2bc f7aa 9bbc 4751 00bc
00000260: a424 bdbc b82e 83bd 77c7 863c ac99 aa3c
00000270: 1201 1b37 184a c9bc ce2d 91bd f419 a1bc
00000280: c12b 7bbc 340e c63c 66eb 1d3d 9e07 92bd
00000290: 945a 7bbd acf0 643d 3b6b 2d3d 34df 0dbc
000002a0: a020 30bd de03 71bd 2790 023d 31fa 153c
000002b0: 5fa8 83bd 2365 e8bc 73db 44bd cf5f 4c3d
000002c0: ce4c 453d 0d80 813c 4a2c bfbc f54e 143b
000002d0: cf33 1f3d accd 25bd 89d2 26bc fbd6 063c
000002e0: a657 623d 7454 943d f06d 69bc 4c83 353b
000002f0: 2dcb 02bd 3ebe 55bc e968 d53c 8b8f 4dbb
00000300: b6cd 3bbb cd72 f63c 84de 90bb a215 133d
00000310: 0cfc dcbc a09c d93c 2808 9dbc 7fcb 14bd
00000320: 09f7 6dbc d488 51bc c3ba 493d ab85 81bc
00000330: 0a62 4b3c 3893 d03a 9b3e 64bd af3f 073d
00000340: e33a 133d 619c 733c febd d53c 9ee2 1d3d
00000350: 37e6 4e39 b904 413d 1c1b a6bc 290c 1e3c
00000360: 4e1c 1c3b ff52 1f3d 8991 0abc 469b 02bd
00000370: 57a7 f53c 48d4 10bd 6a26 81bc ad73 163c
00000380: 99ad 6dbd 9116 2c3d e8e5 5f3c 3a4d 04bc
00000390: f526 0abd ab7a 533d 2fe3 ef3c 44e1 ff3b
000003a0: cee0 da3b 6443 26bc f4df 253d 171a 8c3c
000003b0: de9f b23d e80c 20bd 304f 073d dbdf 29bd
000003c0: c5bd 233d 01ff 52bc 0f5a 74bc 8a55 0b3d
000003d0: 7c4f 2dbb c61c 39bd fefe 053d f08e ec3c
000003e0: 7b6a 863c cefc 5cbd 5507 1b3d be31 65bb
000003f0: 59fa 123d 6f6d 95ba e138 053c 7c01 84bd
-0.0070391 -0.005251129 0.025422642 0.0308681 -0.0040749097 -0.002931597 -0.0019032037 0.047802273
0.019316722 -0.01805964 -0.015302692 -0.02600629 -0.0183306 -0.02181001 0.040653497 0.030060593
-0.024016645 0.01007254 0.0474445 0.0060616774 0.03274319 0.03610064 -0.0350289 -0.01975779
-0.03038229 0.011907997 0.029440552 0.010732508 0.030015087 -0.046972595 -0.039774757 -0.038642783
0.001337759 -0.036248498 0.06540721 -0.004206569 -0.048239168 0.034178875 0.012534546 0.048197187
0.061285447 -0.0052330135 0.05059599 0.009441386 0.048249844 0.003512545 -0.0007627179 -0.0038734777
-0.048765387 -0.013059587 0.015662847 -0.010420218 -0.046465274 -0.014490717 0.08788056 0.03845692
0.0037659293 0.021371353 -0.02727248 0.03285583 0.072537795 -0.033381183 -0.0049496912 -0.04189475
-0.05258263 -0.023154933 0.033347107 -0.048597213 -0.07508474 -0.057253946 -0.0008605341 -0.02778286
-0.0292323 -0.012455116 -0.03797866 0.011036362 0.01088406 -0.014409477 0.006952842 0.02542328
0.03892202 0.023096647 -0.034507636 0.03749425 0.00019970791 0.061434884 0.040983453 0.037092097
-0.048379578 -0.032207277 0.046832684 0.04402675 -0.031426076 -0.035796754 -0.034467604 0.037293684
0.020610847 0.03611202 -0.034185 -0.037949625 0.024981583 0.020180851 -0.01774848 -0.021225948
0.01948069 -0.0212206 -0.036657546 -0.008084341 0.022704836 0.01147979 -0.00839132 0.025176117
-0.0418173 -0.03720753 0.034029208 -0.015822254 -0.00919325 -0.011865951 0.045487437 0.039584786
0.032559495 -0.0007668983 0.024007613 0.021430545 -0.039692834 0.046019785 0.026148083 -0.017482972
-0.0038400977 0.06172859 0.038211845 0.025553385 -0.02607377 0.002185524 0.046436496 -0.048075583
-0.027944338 0.04977468 -0.01579029 -0.029387482 -0.0049761827 0.022526547 -0.022877507 0.025447886
0.003934163 -0.017869947 0.03589039 -0.0116946455 0.011773408 -0.02182403 -0.01900242 -0.007831878
-0.02308876 -0.06405395 0.016452534 0.02082523 9.238969e-06 -0.024571463 -0.07088815 -0.019665696
-0.015330256 0.024176694 0.03855457 -0.07130359 -0.06136568 0.055893585 0.04233859 -0.008659173
-0.042999864 -0.05884158 0.031875756 0.009153889 -0.064285986 -0.028368538 -0.048060846 0.049896058
0.04816895 0.01580813 -0.023336548 0.002263007 0.038867768 -0.040479347 -0.010182031 0.008229966
0.05525937 0.07242671 -0.014247403 0.0027696667 -0.031932045 -0.013045846 0.026051002 -0.0031366076
-0.0028656549 0.030084038 -0.004421057 0.035909303 -0.026975654 0.026563942 -0.019168928 -0.03632688
-0.01452423 -0.01278897 0.049250375 -0.015810808 0.012413511 0.0015913015 -0.055723768 0.033019718
0.03594483 0.014868827 0.026091572 0.038546197 0.00019731453 0.047123645 -0.020276599 0.009646454
0.0023820582 0.03889751 -0.00845755 -0.03188636 0.02998702 -0.035358697 -0.015765388 0.009182853
-0.058026884 0.04201371 0.013665654 -0.008075053 -0.03372856 0.051630657 0.029283134 0.007808836
0.006679631 -0.010147903 0.04049678 0.017102284 0.087218985 -0.03907481 0.033034503 -0.04147325
0.0399759 -0.0128781805 -0.01491405 0.034017123 -0.0026445081 -0.045193456 0.032713883 0.028876752
0.016408196 -0.05395203 0.03784879 -0.0034972276 0.03588328 -0.0011400412 0.008131237 -0.064455956

bias f4 [120]
00000000: 5151 a1bc 6dca 6abc 9d74 003c f2e1 89bc
00000010: 07f9 37bd 1d8d 9b3c e33d 4e3d dd74 1d3d
00000020: 3b3a cfbc 984e 4bbd af8c d73b 2faf 033c
00000030: 32cc 10bd 8a66 3d3a 11ed 07bd 8a74 2c3d
00000040: 5d27 bdbb afb7 3a3c 9ac2 07bd 44df 21bd
00000050: c54b 32bd 976e 423c 42e0 c6bc e19b 1d3d
00000060: 62f4 143d 7ff7 3fbd b033 e83c e002 153d
00000070: 7b05 5b3c ba75 5f3c f34c 283b 0c38 873c
00000080: bec8 193d 35b0 acbb 62cf 223b 8530 b8bc
00000090: 8b22 0b3d f2e8 3a3d 988d 4f3b e27a f7bc
000000a0: dd66 d8bc 4d26 32bd f319 493d 7bcc 85bc
000000b0: 1326 24bd aac1 023d 06b6 d43c 4a36 6d3c
000000c0: 8246 49bd 67f0 25bd 77dd b4bc b3b0 243d
000000d0: 7e9e d63a 8004 4e3d 159f de3b 3fb0 183a
000000e0: 673d 183d fca0 2b3d d02b 29bd 81ba e1ba
000000f0: bf92 333d 677e 413d aa35 823c 12b7 493d
00000100: dcbb 1d3c 6b99 4a3d f3e3 c13c e52d 323d
00000110: 8e01 d1bc 2dae 6bbb 70b9 243d 3b61 c1bc
00000120: 7908 35bc 5904 993b 8866 17bd 03ab 063d
00000130: ee97 7f3c a9de cbbc d320 ce3b 38fe e53c
00000140: 8fc1 793c 0d4d 18bd 0071 30bd 88a0 523d
00000150: 0479 09bc 6718 153d 3bf6 db39 2970 16bd
00000160: c23b 483d 7844 253d d375 abbc dbbd af3c
00000170: 4a22 f93c 2298 bc3b 07a3 2c3d c2f7 1dbd
00000180: 598a 393d 788b b3bc 6d3a fc3c d917 cbbc
00000190: 0d55 1fbd 379e e3bb 3399 16b9 0977 75bc
000001a0: c999 893c ccec 02bd c681 8b38 fcd9 3a3d
000001b0: bb57 b73c 1316 413d e42c 5e3b d1a1 c83c
000001c0: 418b 563d 823f 80bc f840 91bb 0a1a 29bd
000001d0: 1779 8ebc 22c3 073d c0a8 583d c2b7 21bd
-0.019692095 -0.014330489 0.007840303 -0.016831372 -0.044915225 0.018988186 0.05035199 0.038441528
-0.025296321 -0.0496355 0.00657805 0.0080373725 -0.035350986 0.00072250573 -0.03318507 0.042103328
-0.0057725147 0.011396333 -0.03314457 -0.039519563 -0.04352929 0.011867187 -0.024276856 0.038478736
0.036365874 -0.04686689 0.028344959 0.036379695 0.013368006 0.013638908 0.002568063 0.016506217
0.03754496 -0.005270029 0.0024842848 -0.022484073 0.03396849 0.04563231 0.003167009 -0.030209962
-0.026416237 -0.043493558 0.049097013 -0.016332855 -0.040075373 0.031922974 0.025965702 0.014478276
-0.049139507 -0.04051247 -0.022078259 0.040207576 0.0016374139 0.05029726 0.0067938664 0.00058246026
0.037167933 0.041901574 -0.04130155 -0.001722172 0.04384112 0.047239687 0.01589473 0.049246855
0.009627309 0.049462717 0.023668265 0.0435008 -0.025513437 -0.003596197 0.04021591 -0.023605933
-0.011049383 0.0046697077 -0.036963016 0.032877933 0.015600188 -0.024886446 0.006290534 0.028075323
0.015243902 -0.037182856 -0.043076515 0.051422626 -0.008390669 0.036400225 0.0004195439 -0.036728058
0.048885114 0.0403485 -0.020930206 0.021452835 0.030411858 0.0057554403 0.042147662 -0.03856636
0.045297954 -0.02191709 0.030789578 -0.024791645 -0.03889947 -0.006946351 -0.00014362186 -0.0149819935
0.016796963 -0.03196411 6.652209e-05 0.045618042 0.0223807 0.047140192 0.0033901269 0.024491223
0.052378897 -0.015655283 -0.0044327937 -0.0412846 -0.017391725 0.033145078 0.052895308 -0.039481886

weight f4 [84, 120]
00000000: f298 bf3d 0737 b1bc 156f 583d 06ad 203d
00000010: c3a1 a2bd 38c7 423d 4d7e a7bd b138 b9bd
00000020: ffd3 f3bb e900 89bb 523c a33d e5a8 40bd
00000030: 5bfd 3f3d 15c4 043d d18b 0abd 2833 ec3c
00000040: ac7e 2d3d 2d9f 97bd 653d a6bd fcdf 783d
00000050: 4616 303d 1505 bebd 0338 93bc 4c78 603d
00000060: 155b 303d f051 433d 7816 11bd 3288 1dbd
00000070: 1c5e 20bc 9793 2c3d dc4e 5dbd b52c fe3c
00000080: f138 a03d bd82 94bd 43ec 6b3d 9973 33bd
00000090: 032a ce3d 9d47 613d 8769 913a 2190 993d
000000a0: 8e74 5c3d 90dc 2d3d c92c a23d 4ad9 35bd
000000b0: b4b9 85bd a292 983d 712a a93d 0a50 6c3d
000000c0: 273b f7ba 159e d0bd c374 47bd 1398 17bd
000000d0: 9eeb 213d 39f6 dabc ad4c f33c dcff 94bc
000000e0: 1cd8 bcbd 94fd c63c fba2 bd3c 4cbb a23d
000000f0: 61c2 a5ba aa4c 5ebd a8e7 17bd 8302 94bc
00000100: 6540 a9bd 3f75 72bd f6f7 7c3d 9448 3b3d
00000110: 5581 a5bb 22bf 5ebc a712 96bb df81 4abd
00000120: 1080 74bd 3d54 493d ccf1 ff39 fdbb 90bd
00000130: 81f1 bf3c d7b2 b0bd 28c1 433d 8e83 d8ba
00000140: 258f 8c3d a4ea aa3d c4a7 f73c 2fef 313d
00000150: e10d a53d 481b 043d b2a4 813d 598a 85bb
00000160: 7997 05bc 3251 603d 593a 37bd eb3a 0ebc
00000170: 94b0 d13c 36ae cb3d 4b69 a03d 9ac4 23bc
00000180: f7f4 b8b9 eae8 6f3b b9dc ed3b a1fd 8abc
00000190: 6a25 c03c 116a 0cbc 6712 5a3c 1696 f33a
000001a0: 8a1e c4ba 8791 4ebd a9a7 17bd 5236 dc3c
000001b0: d791 613c 75d4 483d 1a25 b03c ed83 39bc
000001c0: 1b70 9cbd 7e1a ebbc 449d 84bd f21b 523d
000001d0: 6f42 ab3c e301 973d f71f 7bbd bba0 643b
000001e0: 2d26 84bd bfe7 323c 2461 843d e158 bcbb
000001f0: ab83 82bc af1d da3d 6be3 85bd 7fdb fbbd
00000200: d6c0 a83d effe b5bd 292f 3e3d 5d07 3a3d
00000210: 0935 d9bc 3da7 f1bc 0a7e 53bd 2a3c 0d3d
00000220: 7b31 9ebc 2f75 f53c eef4 00bd 59ab 08bd
00000230: b02c 463d b2e9 b23d 93a3 383d 0b69 483d
00000240: 1cf1 e33d c0bd fe3b 565b d7bc a30a 05be
00000250: e752 093e 95e4 54bc cc2f e93c b679 aa3d
00000260: b805 813d 24b4 f6bd 9c70 7abd dc2e a33d
00000270: 825a b1bd bbc7 6d3d 4b55 71bd 36de 60bd
00000280: 4d75 edbc b959 a83b 43d3 91bd 7770 b83d
00000290: 9e5f bc3d 3340 6dbd 8e70 12bd 2671 6e3d
000002a0: e740 11bc 8b56 243d c719 c43d 47fb c23d
000002b0: 7724 bfbd d724 9f3c 4283 5a3c ed16 bd3d
000002c0: 3942 cb3c fd6f 9e3d 75a4 42bd b3a4 143d
000002d0: 78d9 78bd 3469 ba3d c704 ab3d a1d9 a8bd
000002e0: d5fd 843c b81b 8dbd deca cd3c fcb4 263d
000002f0: 5982 dfbc 085d 1cbd 77a4 a63c 132c 8c3d
00000300: 756c 87bc a7e3 01bd 09a9 abbc 2ab3 903d
00000310: 2139 1e3d 9282 adbd 5ffd b5bd 10e6 ea3d
00000320: 6312 813d 2f23 8d3d 636f ddbd 8f0a 9b3d
00000330: 4bca e03c f7a6 6a3c 57b8 e0bc edfa 68bc
00000340: cbb9 b2bd acf9 cb3c 1f00 fb3d e999 8fbd
00000350: 2c5a 513d 310c 15bd 4fd3 c63d 8766 9d3d
00000360: 645b b43c 9cc3 803c d7e2 adbd 52f9 803d
00000370: 7506 193c a8d6 9abd 9997 67bc 602d 843d
00000380: bb7f b33d 5f33 93bc 1646 8a3d c7e7 fe3c
00000390: f818 8cbd c169 a5bd 37bf 81bd 2a12 ae3d
000003a0: c71c 2c3d a82c be3d 5f85 b73d 88dd f23c
000003b0: cdbd 86bd 0bcd 803d 56d5 c53c f8c1 89bd
000003c0: f853 b7bd 4989 3c3d 4381 4f3c 9576 133d
000003d0: 8a9a 84bd 79f0 c6bb 1bd9 ea3d 9427 693d
000003e0: a6f8 f3bd f7ee 18bd 0931 97bd 179b c63c
000003f0: 68ed 8fbd 7377 93bd 89d7 bbbc 672d 2b3d
0.09355344 -0.021632684 0.05284031 0.039227508 -0.0794101 0.04755327 -0.08178387 -0.09044016
-0.0074410434 -0.0041810167 0.079704896 -0.04703607 0.046872478 0.03241356 -0.033824746 0.028832987
0.04235713 -0.07403407 -0.08117179 0.060760483 0.04298999 -0.09278313 -0.017971044 0.054802224
0.043055613 0.047685564 -0.03542182 -0.038459964 -0.009788062 0.04213294 -0.054030284 0.031027177
0.07823361 -0.07251499 0.057598364 -0.043811414 0.10066607 0.054999936 0.0011094072 0.074981935
0.053822093 0.042446673 0.07918698 -0.044396676 -0.06529561 0.07449843 0.08260048 0.05769352
-0.0018862233 -0.10186402 -0.048695337 -0.037010264 0.039531343 -0.026728736 0.029699648 -0.01818841
-0.09220907 0.024290837 0.023149004 0.0794588 -0.001264643 -0.05427233 -0.03708616 -0.018067604
-0.082642354 -0.059193846 0.06175991 0.045723513 -0.005050818 -0.013595374 -0.0045798603 -0.04944026
-0.059692442 0.0491526 0.00048817543 -0.07067106 0.023430588 -0.08627861 0.04779163 -0.0016518699
0.0686324 0.083455354 0.030231364 0.043440994 0.08059288 0.03225258 0.06330241 -0.00407533
-0.00815379 0.054764934 -0.04473338 -0.008681039 0.025596894 0.099453375 0.07832583 -0.009995604
-0.00035277728 0.0036607333 0.007258978 -0.016966643 0.02345534 -0.00857021 0.0133100515 0.0018584158
-0.0014962715 -0.050431754 -0.037025128 0.02688137 0.013767681 0.04903074 0.021502066 -0.011322957
-0.0763857 -0.028699156 -0.064753085 0.051296182 0.020905701 0.07373407 -0.06130978 0.0034885842
-0.06452594 0.01091951 0.064638406 -0.0057479 -0.015931925 0.10650193 -0.06537517 -0.12297725
0.082399055 -0.08886515 0.046431694 0.04541718 -0.026514547 -0.02949869 -0.051633872 0.034481205
-0.019310704 0.029963104 -0.031483583 -0.033366535 0.04838246 0.0873598 0.04507787 0.0489283
0.11129972 0.007774085 -0.02628867 -0.12992339 0.13410531 -0.012993951 0.028465174 0.08323996
0.06299919 -0.12046078 -0.06114255 0.07967922 -0.08659841 0.058051806 -0.058919232 -0.054899417
-0.028986597 0.005137649 -0.07120373 0.09005826 0.09197925 -0.057922553 -0.03575187 0.058213376
-0.008865572 0.040121596 0.09575229 0.095205836 -0.09333127 0.019426746 0.013336958 0.09232888
0.02481185 0.07736204 -0.04752012 0.036289882 -0.06075427 0.09102097 0.083505206 -0.082446344
0.016234318 -0.068900526 0.025121149 0.040699944 -0.027283834 -0.03817466 0.020342095 0.06844344
-0.016531209 -0.031711247 -0.020954626 0.07065423 0.0386287 -0.0847217 -0.08886217 0.11469662
0.06302335 0.06891476 -0.10812261 0.07570373 0.02744021 0.014322034 -0.02743165 -0.014219982
-0.087268434 0.024899326 0.122558825 -0.07011778 0.051111385 -0.03638858 0.09708273 0.07685571
0.022016235 0.015718274 -0.08490532 0.06297554 0.009339918 -0.07560474 -0.014135265 0.06453967
0.08764597 -0.017968832 0.06751649 0.03111638 -0.068407 -0.080768116 -0.063352995 0.08499558
0.04201963 0.09285861 0.089609854 0.02964665 -0.065791704 0.06289109 0.024149578 -0.0672645
-0.08951563 0.046029363 0.012665096 0.03600176 -0.064747885 -0.006071147 0.11467191 0.05692251
-0.1191266 -0.03733727 -0.073823996 0.024243874 -0.070277035 -0.072005175 -0.022929924 0.041791346

bias f4 [84]
00000000: e8ba 483d 9235 d1bc 9e1e 99bd dc15 66bd
00000010: 3f72 4b3a faf1 c6bc 524d d33d 5d69 603d
00000020: 285b 6bbd 4317 afbd ad0b 31bd d4a8 d63b
00000030: 2407 9c3c a64d 663d ebdb d93d b787 903d
00000040: b8b4 5ebd 2c9b 903d 5e7a 19bd 6be1 b5bd
00000050: 20ff 083d 0f6b e53c ed14 973d d59f 49bc
00000060: bcdf 6e3d 68d4 05bd 3b39 27bd 35cf 193d
00000070: cb5a ecbc 2d25 29bd 7ceb 82bd 2066 093d
00000080: 7215 2fbd b360 4bbc e7c7 783b ed24 75bc
00000090: 374a 25bd 82ee 94bd c923 d13d 1e23 07ba
000000a0: 795c b4bd 7eb1 4dbd f796 36bd b267 9ebb
000000b0: 6fe2 80bd bf08 50bc eef1 77bd bffb 9bbd
000000c0: 9b66 b33c 4420 61bd 8836 ddbc 1c3f 71bd
000000d0: 4783 6d3d e7c8 98bd a466 23bd abaf 4fbd
000000e0: de15 a33c 80a3 98bd a190 193d 235b 96bd
000000f0: bd94 f73b bfa3 b53d 15e6 803d ecc0 8a3d
00000100: 0b0c 21bd eb77 84bd 64af 8e3d fe43 833d
00000110: e3f3 21bd 0f27 633d 76c4 503d 23a2 8cbd
00000120: 7fc2 efbc aa0e 02bd 6dba a8bd ee0e 263c
00000130: 3307 53bd 7c82 9b3d 638d 0ebd b6bb 233c
00000140: 4256 16bc 8215 06bc 5dd7 513d 0328 a2bc
0.049006373 -0.02553824 -0.07476543 -0.05617319 0.00077608594 -0.024285305 0.10317482 0.054787982
-0.05745998 -0.08549359 -0.043224026 0.0065508876 0.019046374 0.056226395 0.10637649 0.070571356
-0.054371566 0.07060847 -0.037470214 -0.08880886 0.03344643 0.028005151 0.07377038 -0.012306173
0.05831884 -0.03267327 -0.040826064 0.037551124 -0.028851887 -0.04129522 -0.06392571 0.03354466
-0.04274506 -0.012413192 0.0037960948 -0.014962417 -0.04035398 -0.07272054 0.102119036 -0.0005155074
-0.088067 -0.050218098 -0.044577565 -0.004834139 -0.06293189 -0.012697398 -0.060533457 -0.07616376
0.021899512 -0.05496241 -0.027003542 -0.058898076 0.057986524 -0.07460194 -0.039892808 -0.05070464
0.019907888 -0.0745306 0.037491444 -0.07341602 0.007555573 0.08869123 0.06293885 0.06775078
-0.039318126 -0.06468185 0.06967047 0.06409453 -0.03953923 0.05545717 0.05096861 -0.068668626
-0.029267548 -0.031752266 -0.08238683 0.010135395 -0.051520538 0.07593247 -0.034802806 0.009993484
-0.009175839 -0.008183839 0.051230777 -0.01979447

weight f4 [10, 84]
00000000: 8006 1ebe 8e7a 08bd 3df7 84bc d648 203d
00000010: 1a55 6d3e be7f 1cbe 6baf 2bbd 3ccd 23bd
00000020: 89c5 c9bd 3d58 08be 537a e3bd 2cf8 16bd
00000030: 95b1 43be 749b 7e3d 2217 7d3d 0694 9ebd
00000040: 6f7d e13c 7d7c 11be 6e58 c3bd 9570 063d
00000050: 59e6 1dbe a579 a03d b700 723d f403 2c3e
00000060: 658b b93d 1bc6 b93d 89ed dfba 5d08 f5bd
00000070: eb7b ad3d eeef 043e 4920 873d 4235 13bb
00000080: 7b91 3fbe c259 2bbb 9439 2ebc 999d 933c
00000090: 7071 13be e00f bfbd 456e 8dbe 50f9 acbd
000000a0: 3f43 ebbc fe83 a8bd 9bb7 423d 6b9e 583c
000000b0: ea58 32bd ea8f a3ba cbe8 8c3d 3d9f 083e
000000c0: 3a08 7d3d 11ce 213d 07b3 d53d f280 393d
000000d0: 60a9 d43c 25d8 46bd 0a78 623c 1776 ff3c
000000e0: 1c95 9dbd 83fa 9dbd 62c0 8f3d 2e75 e33d
000000f0: 8b99 a9bd 6c73 cd3d a539 303e fb71 05be
00000100: 0605 233e 6bdb 243d e3b2 e53d 8aaa a2bd
00000110: 02e1 abbd 9cef 8cbd 5954 b63d 2a88 a3bd
00000120: 6152 b2bd f668 483e 424b e33d 46de f1bd
00000130: 4e29 c73d 75d5 38be 53a4 f2bd ac19 c5bd
00000140: b6ed 01bd 4062 64bc ee73 a3bd 1647 a33d
00000150: 6cff a7bd eb5c 81bd 84c6 133e f2af 8ebd
00000160: 44b9 41be eef6 4a3e 3b1f 053e 56e1 10be
00000170: 3e36 03ba acf5 32be 3a88 2bbc 7ded debd
00000180: 6048 4e3d 04be b1bc b0b0 033e a0c2 a2bc
00000190: 0383 02bd f4c1 0b3e d782 8ebd 6398 a83d
000001a0: 837f adbd 5a8f 90be 613b f23d c6b9 6a3e
000001b0: 2874 38be 7338 2dbd 03d9 96bd e007 d43d
000001c0: 84e4 953d 207b e23b c56b e2bb d9c1 2fbc
000001d0: 9817 f0bd a98a 413e 4ad1 61bd e186 9a3d
000001e0: db67 033c de24 673d bdf6 813d ba47 32be
000001f0: 2e10 43bd f26c cebd 67b3 8ebd 90f6 b9bd
00000200: aca2 35bd 4c61 3fbe 2643 34be ae13 5a3d
00000210: db5e 493d a685 e2bb 257f d3bd 14d8 403d
00000220: af4f d6bd aa27 b1bd d9d3 cfbc 3acd d03d
00000230: 0dd0 49bc 3454 9a3a 7731 55bc ce6b 28be
00000240: e02f 223e cdda 70bd 0368 cc3d 9bd9 8b3e
00000250: 448f 8039 12a8 bd3d c981 d1bd 0091 7d3d
00000260: d8de 073d 4c38 983d a610 2d3d 8b90 053e
00000270: 004f 803d 8b6b 4dbe 6cf9 323e 3ce1 943d
00000280: aac8 d0bd fb1a 523e 0c6c 383d 8945 133e
00000290: 157f 0f3d 253c 20bb 9cc6 a4bc c585 5fbe
000002a0: 02e2 153b bf83 26be 0904 1abe 9909 28bd
000002b0: d99f 21bd 2cf2 4b3e 4d0b a5be b85b 7b3d
000002c0: 6258 d0bd 1ee8 3d3e 883f 1bbc a505 20bd
000002d0: 9439 17bd f0ca 94bb f40b 483e e412 403d
000002e0: 6319 33bc da0b 543d 554a 263d 27b9 4dbe
000002f0: dae9 40be adb6 b4bd d66a 97bd d520 713e
00000300: 6fb7 a93d cf96 f2bb ba92 dd3d 345f cc3d
00000310: f8cf e13c b227 093e 9063 0dbd dbe4 1dbe
00000320: 22f9 78bc db6f a53d 599e 04be 22e8 cebd
00000330: 1f1d 66bd 353b 73bd cc4e 513d 9a46 c5bd
00000340: 7d76 b0bc 3d45 44bd cff2 373e ad68 c1bc
00000350: a117 a53d b207 e23d 4bfb 35be 22ec 2c3e
00000360: 3115 a53c 3153 a43b 86a4 7f3d 6553 b93d
00000370: a805 a0bd 10b1 ccbd f466 bdbd 1ba1 d2bd
00000380: b9ac 9dbd 1c8d a33d 3891 62bb f978 c2bc
00000390: 2f53 163e 9b28 04bc a17a bdbd 8bb9 90be
000003a0: b969 64bd 4e30 103e 94bc 833d 5dc9 063e
000003b0: b489 c0bd 87bf a83d 446b da3c ea4c c2bd
000003c0: c448 213d 5e10 303e 4775 9bbc 0ac7 c5bd
000003d0: 4f23 5f3e 38e0 c8bb 380a 193d ed26 d23d
000003e0: 1bdf 9a3d c049 853a 1f01 573e 5fce e03b
000003f0: 84b4 db3d c5a0 c5bd f614 363c 8ad0 1d3e
-0.15432167 -0.033320002 -0.016231174 0.03913196 0.23176995 -0.15283105 -0.04191534 -0.03999065
-0.0985213 -0.1331491 -0.11107316 -0.03685777 -0.19110711 0.06215997 0.06178964 -0.07743077
0.027525632 -0.14207645 -0.09538351 0.03282221 -0.15419902 0.07835702 0.059082713 0.16798383
0.090597905 0.09070989 -0.0017084341 -0.11964486 0.08470901 0.12982151 0.06597955 -0.0022462164
-0.1870784 -0.002614603 -0.010633845 0.018019484 -0.14398742 -0.093292 -0.2762319 -0.0844599
-0.028718589 -0.082283005 0.04753838 0.013221364 -0.043541826 -0.0012478803 0.06880339 0.13341995
0.061775424 0.03950316 0.104345374 0.045288987 0.02595967 -0.048545975 0.013822565 0.03118424
-0.07694456 -0.07713797 0.07019116 0.111063346 -0.08281239 0.100317806 0.1720949 -0.13031761
0.15919885 0.040248316 0.112157606 -0.07942684 -0.08392526 -0.06881639 0.08902807 -0.079849556
-0.08707119 0.1957129 0.11098339 -0.118099734 0.09724675 -0.18050177 -0.118477486 -0.09624037
-0.03172084 -0.01393944 -0.07981096 0.07972543 -0.08203015 -0.06316551 0.14431196 -0.06967153
-0.1891833 0.19820759 0.13000195 -0.14148459 -0.0005005336 -0.17476529 -0.010469491 -0.10885141
0.05036199 -0.021697052 0.1286037 -0.019868195 -0.031863224 0.13648206 -0.069585495 0.082321905
-0.084715866 -0.2823437 0.11827732 0.2292243 -0.1801306 -0.042290162 -0.073656105 0.103530645
0.073189765 0.0069116503 -0.00690982 -0.010727369 -0.1172325 0.18900551 -0.055131234 0.07545257
0.008020367 0.056431644 0.0634589 -0.17410174 -0.047622852 -0.100793734 -0.06967812 -0.09080231
-0.04434459 -0.1868946 -0.1760374 0.053241424 0.049162727 -0.006912905 -0.10326985 0.04708107
-0.10464417 -0.086501434 -0.025369572 0.10195394 -0.01231767 0.0011774362 -0.013012282 -0.16447374
0.15838575 -0.058802415 0.09980776 0.27314457 0.00024520804 0.092605725 -0.10229833 0.06190586
0.033171505 0.07432613 0.042252205 0.1304342 0.06265068 -0.20060556 0.1747796 0.072695225
-0.10194524 0.20518105 0.045024917 0.14381994 0.035033304 -0.0024449911 -0.020114236 -0.21828373
0.0022870307 -0.16261195 -0.15040602 -0.041024778 -0.039459083 0.199166 -0.32235184 0.061366767
-0.10173108 0.18545577 -0.009475596 -0.039067883 -0.036920145 -0.0045407936 0.1953581 0.046893016
-0.010931346 0.051769115 0.040598232 -0.20090161 -0.18839207 -0.08823905 -0.07393424 0.2354768
0.0828694 -0.0074032317 0.108190015 0.09979096 0.027564988 0.13394049 -0.03451878 -0.15419333
-0.015196117 0.08077975 -0.1295103 -0.101028696 -0.056180116 -0.059382636 0.051100537 -0.09632607
-0.021540875 -0.047917593 0.17963718 -0.023609484 0.080611475 0.11036624 -0.17771642 0.16886953
0.020151706 0.0050148 0.06241276 0.09049109 -0.07813579 -0.099947095 -0.092481524 -0.10284635
-0.0769896 0.07985899 -0.003457142 -0.023739325 0.1468017 -0.008066322 -0.09251905 -0.28266558
-0.055764887 0.14080927 0.06432453 0.13162751 -0.09401265 0.08239656 0.026662476 -0.094873264
0.039376035 0.17193744 -0.01897682 -0.09657104 0.21790813 -0.0061302446 0.03736326 0.10261331
0.07562085 0.0010169074 0.20996521 0.006860539 0.1072779 -0.09649805 0.011113396 0.15411583

bias f4 [10]
00000000: 2bfe 2cbd 9da4 4a3e 1b90 293c 4222 c13c
00000010: 9982 973d 19a9 733d 526b d13d f048 bb3d
00000020: f9c9 183c a6dd ad3d
-0.04223458 0.19789357 0.010349299 0.023575906 0.073979564 0.059487436 0.10225548 0.09144771
0.009325498 0.08489542
